model.pth (torch, 2496 bytes, 4 tensors)

conv1.bias f4 [16]
-0.17930387 -0.100100696 0.0 0.0 0.0 -0.07078182 -0.012210456 0.0039949827
0.035001196 -0.063951895 -0.08253035 -0.06553555 -0.1072668 -0.07022489 -0.04318926 -0.029176848
00000000: 6f9b 37be 9801 cdbd 0000 0000 0000 0000
00000010: 0000 0000 0ff6 90bd 5d0e 48bc 58e8 823b
00000020: 6a5d 0f3d 36f9 82bd ac05 a9bd 8137 86bd
00000030: b2ae dbbd 11d2 8fbd 39e7 30bd 4904 efbc

conv1.lin.weight f4 [16, 5]
-0.6555733 -0.5379075 -0.016047075 1.0778602 -0.05245059 -0.10360109 -0.1991929 -0.111634254
0.25245655 0.3591804 -0.33897018 -0.19226262 -0.18355463 -0.43397212 -0.50253016 -0.47256103
-0.08423197 -0.5213034 0.010652462 -0.08059617 -0.15745293 -0.16758691 -0.39549592 0.44972798
0.44234493 0.21000193 0.35872105 0.27658263 0.67052275 0.34062278 0.4946681 0.5164046
-0.43534696 -0.2752736 -0.8699653 -0.18875568 0.26464832 0.11781375 -1.218517 -0.6041469
-0.087749414 0.19480468 0.39235777 -1.2740283 -0.061136283 -0.38450986 0.108439736 0.45243773
1.0491718 0.6897776 0.39654344 -0.4558427 -0.021877274 0.19684939 -0.09032867 0.49821115
0.29699567 -0.19792254 -0.52696913 -0.18025337 0.023147989 0.0060717226 -0.5622075 -0.53866005
-0.5582231 -0.017362092 0.038847983 0.19360533 -0.5813519 -0.47380194 -0.04791231 -0.30829522
0.38934305 -1.185864 -0.66035765 0.25028417 0.3980214 -0.3705322 0.5140721 0.27957284
00000000: a7d3 27bf 4eb4 09bf 2875 83bc 53f7 893f
00000010: 6ed6 56bd cf2c d4bd 39f9 4bbe 80a0 e4bd
00000020: fc41 813e 7ee6 b73e 808d adbe 7ee0 44be
00000030: bff5 3bbe 9831 debe d1a5 00bf 85f3 f1be
00000040: d081 acbd 2474 05bf aa87 2e3c 9b0f a5bd
00000050: 573b 21be e79b 2bbe 717e cabe bf42 e63e
00000060: 097b e23e bf0a 573e 49aa b73e 3d9c 8d3e
00000070: 61a7 2b3f 1c66 ae3e 2345 fd3e 1833 043f
00000080: cce5 debe a9f0 8cbe 0cb6 5ebf 2b49 41be
00000090: fc7f 873e 5648 f13d 5df8 9bbf 5fa9 1abf
000000a0: f7b5 b3bd e17a 473e 1ee3 c83e 5c13 a3bf
000000b0: 0a6a 7abd 7ade c4be a715 de3d eba5 e73e
000000c0: 434b 863f 4495 303f be07 cb3e 3764 e9be
000000d0: f837 b3bc e392 493e 3dfe b8bd 8815 ff3e
000000e0: d10f 983e 35ac 4abe 73e7 06bf 5794 38be
000000f0: daa0 bd3c 4df5 c63b d5ec 0fbf a0e5 09bf
00000100: b6e7 0ebf f23a 8ebc 101f 1f3d 7a40 463e
00000110: 7ad3 14bf 2b96 f2be b33f 44bd dfd8 9dbe
00000120: f957 c73e 64ca 97bf 330d 29bf 3f25 803e
00000130: 76c9 cb3e 66b6 bdbe 3b9a 033f 2c24 8f3e

conv2.bias f4 [2]
0.044527933 -0.044527933
00000000: ec62 363d ec62 36bd

conv2.lin.weight f4 [2, 16]
0.4174693 -0.009156982 -0.55570346 -0.37708688 -0.25838426 -0.13581187 0.10351557 -0.09222713
0.591437 -0.22598235 -0.4469978 0.23586991 0.38488576 0.16062558 0.18173966 -0.2687891
0.25185087 0.026874803 0.13989158 0.4779514 0.30733916 0.39482394 -0.09982871 -0.40174243
-0.33033714 0.4783612 -0.44532892 -0.29644787 0.37590158 0.037617225 -0.03951849 0.3637957
00000000: 89be d53e 2b07 16bc 9542 0ebf 8811 c1be
00000010: f14a 84be 4412 0bbe f9ff d33d 94e1 bcbd
00000020: 6a68 173f eb67 67be e5dc e4be e287 713e
00000030: bf0f c53e 087b 243e f619 3a3e ba9e 89be
00000040: 99f2 803e 8c28 dc3c bd3f 0f3e 0cb6 f43e
00000050: 8f5b 9d3e 5d26 ca3e ff72 ccbd 2fb1 cdbe
00000060: f321 a9be c2eb f43e 2702 e4be 04c8 97be
00000070: 2c76 c03e 8514 1a3d 24de 21bd 6e43 ba3e
